…
Loading checkpoint shards:   0%|          | 0/2 [00:00<?, ?it/s]Loading checkpoint shards:  50%|█████     | 1/2 [00:01<00:01,  1.76s/it]Loading checkpoint shards: 100%|██████████| 2/2 [00:02<00:00,  1.09s/it]Loading checkpoint shards: 100%|██████████| 2/2 [00:02<00:00,  1.19s/it]
Warning: module Embedding is treated as a zero-op.
Warning: module LlamaRotaryEmbedding is treated as a zero-op.
Warning: module LlamaMLP is treated as a zero-op.
Warning: module LlamaDecoderLayer is treated as a zero-op.
Warning: module LlamaModel is treated as a zero-op.
Warning: module LlamaForCausalLM is treated as a zero-op.
Warning! No positional inputs found for a module, assuming batch size is 1.
LlamaForCausalLM(
  6607.34 M, 98.055% Params, 424.02 GMac, 99.741% MACs, 
  (model): LlamaModel(
    6476.27 M, 96.110% Params, 415.63 GMac, 97.768% MACs, 
    (embed_tokens): Embedding(0, 0.000% Params, 0.0 Mac, 0.000% MACs, 32000, 4096)
    (layers): ModuleList(
      (0-31): 32 x LlamaDecoderLayer(
        202.38 M, 3.003% Params, 12.99 GMac, 3.055% MACs, 
        (self_attn): LlamaAttention(
          67.11 M, 0.996% Params, 4.33 GMac, 1.018% MACs, 
          (q_proj): Linear(16.78 M, 0.249% Params, 1.07 GMac, 0.253% MACs, in_features=4096, out_features=4096, bias=False)
          (k_proj): Linear(16.78 M, 0.249% Params, 1.07 GMac, 0.253% MACs, in_features=4096, out_features=4096, bias=False)
          (v_proj): Linear(16.78 M, 0.249% Params, 1.07 GMac, 0.253% MACs, in_features=4096, out_features=4096, bias=False)
          (o_proj): Linear(16.78 M, 0.249% Params, 1.07 GMac, 0.253% MACs, in_features=4096, out_features=4096, bias=False)
          (rotary_emb): LlamaRotaryEmbedding(0, 0.000% Params, 0.0 Mac, 0.000% MACs, )
        )
        (mlp): LlamaMLP(
          135.27 M, 2.007% Params, 8.66 GMac, 2.037% MACs, 
          (gate_proj): Linear(45.09 M, 0.669% Params, 2.89 GMac, 0.679% MACs, in_features=4096, out_features=11008, bias=False)
          (down_proj): Linear(45.09 M, 0.669% Params, 2.89 GMac, 0.679% MACs, in_features=11008, out_features=4096, bias=False)
          (up_proj): Linear(45.09 M, 0.669% Params, 2.89 GMac, 0.679% MACs, in_features=4096, out_features=11008, bias=False)
          (act_fn): SiLUActivation(0, 0.000% Params, 704.51 KMac, 0.000% MACs, )
        )
        (input_layernorm): LlamaRMSNorm(4.1 k, 0.000% Params, 524.29 KMac, 0.000% MACs, )
        (post_attention_layernorm): LlamaRMSNorm(4.1 k, 0.000% Params, 524.29 KMac, 0.000% MACs, )
      )
    )
    (norm): LlamaRMSNorm(4.1 k, 0.000% Params, 524.29 KMac, 0.000% MACs, )
  )
  (lm_head): Linear(131.07 M, 1.945% Params, 8.39 GMac, 1.973% MACs, in_features=4096, out_features=32000, bias=False)
)
Computational complexity:       425.12 GMac
Number of parameters:           6738.42 M
GPU Memory Requirement: 12924.6484375 MiB

Warning: module Embedding is treated as a zero-op.
Warning: module LlamaRotaryEmbedding is treated as a zero-op.
Warning: module LlamaMLP is treated as a zero-op.
Warning: module LlamaDecoderLayer is treated as a zero-op.
Warning: module LlamaModel is treated as a zero-op.
Warning: module LlamaForCausalLM is treated as a zero-op.
Warning! No positional inputs found for a module, assuming batch size is 1.
LlamaForCausalLM(
  3461.13 M, 96.351% Params, 222.12 GMac, 99.744% MACs, 
  (model): LlamaModel(
    3330.06 M, 92.702% Params, 213.73 GMac, 95.977% MACs, 
    (embed_tokens): Embedding(0, 0.000% Params, 0.0 Mac, 0.000% MACs, 32000, 4096)
    (layers): ModuleList(
      (0-3): 4 x LlamaDecoderLayer(
        202.38 M, 5.634% Params, 12.99 GMac, 5.833% MACs, 
        (self_attn): LlamaAttention(
          67.11 M, 1.868% Params, 4.33 GMac, 1.944% MACs, 
          (q_proj): Linear(16.78 M, 0.467% Params, 1.07 GMac, 0.482% MACs, in_features=4096, out_features=4096, bias=False)
          (k_proj): Linear(16.78 M, 0.467% Params, 1.07 GMac, 0.482% MACs, in_features=4096, out_features=4096, bias=False)
          (v_proj): Linear(16.78 M, 0.467% Params, 1.07 GMac, 0.482% MACs, in_features=4096, out_features=4096, bias=False)
          (o_proj): Linear(16.78 M, 0.467% Params, 1.07 GMac, 0.482% MACs, in_features=4096, out_features=4096, bias=False)
          (rotary_emb): LlamaRotaryEmbedding(0, 0.000% Params, 0.0 Mac, 0.000% MACs, )
        )
        (mlp): LlamaMLP(
          135.27 M, 3.766% Params, 8.66 GMac, 3.888% MACs, 
          (gate_proj): Linear(45.09 M, 1.255% Params, 2.89 GMac, 1.296% MACs, in_features=4096, out_features=11008, bias=False)
          (down_proj): Linear(45.09 M, 1.255% Params, 2.89 GMac, 1.296% MACs, in_features=11008, out_features=4096, bias=False)
          (up_proj): Linear(45.09 M, 1.255% Params, 2.89 GMac, 1.296% MACs, in_features=4096, out_features=11008, bias=False)
          (act_fn): SiLUActivation(0, 0.000% Params, 704.51 KMac, 0.000% MACs, )
        )
        (input_layernorm): LlamaRMSNorm(4.1 k, 0.000% Params, 524.29 KMac, 0.000% MACs, )
        (post_attention_layernorm): LlamaRMSNorm(4.1 k, 0.000% Params, 524.29 KMac, 0.000% MACs, )
      )
      (4-29): 26 x LlamaDecoderLayer(
        81.38 M, 2.265% Params, 5.22 GMac, 2.345% MACs, 
        (self_attn): LlamaAttention(
          27.26 M, 0.759% Params, 1.76 GMac, 0.790% MACs, 
          (q_proj): Linear(6.82 M, 0.190% Params, 436.21 MMac, 0.196% MACs, in_features=4096, out_features=1664, bias=False)
          (k_proj): Linear(6.82 M, 0.190% Params, 436.21 MMac, 0.196% MACs, in_features=4096, out_features=1664, bias=False)
          (v_proj): Linear(6.82 M, 0.190% Params, 436.21 MMac, 0.196% MACs, in_features=4096, out_features=1664, bias=False)
          (o_proj): Linear(6.82 M, 0.190% Params, 436.21 MMac, 0.196% MACs, in_features=1664, out_features=4096, bias=False)
          (rotary_emb): LlamaRotaryEmbedding(0, 0.000% Params, 0.0 Mac, 0.000% MACs, )
        )
        (mlp): LlamaMLP(
          54.1 M, 1.506% Params, 3.46 GMac, 1.555% MACs, 
          (gate_proj): Linear(18.03 M, 0.502% Params, 1.15 GMac, 0.518% MACs, in_features=4096, out_features=4403, bias=False)
          (down_proj): Linear(18.03 M, 0.502% Params, 1.15 GMac, 0.518% MACs, in_features=4403, out_features=4096, bias=False)
          (up_proj): Linear(18.03 M, 0.502% Params, 1.15 GMac, 0.518% MACs, in_features=4096, out_features=4403, bias=False)
          (act_fn): SiLUActivation(0, 0.000% Params, 281.79 KMac, 0.000% MACs, )
        )
        (input_layernorm): LlamaRMSNorm(4.1 k, 0.000% Params, 524.29 KMac, 0.000% MACs, )
        (post_attention_layernorm): LlamaRMSNorm(4.1 k, 0.000% Params, 524.29 KMac, 0.000% MACs, )
      )
      (30-31): 2 x LlamaDecoderLayer(
        202.38 M, 5.634% Params, 12.99 GMac, 5.833% MACs, 
        (self_attn): LlamaAttention(
          67.11 M, 1.868% Params, 4.33 GMac, 1.944% MACs, 
          (q_proj): Linear(16.78 M, 0.467% Params, 1.07 GMac, 0.482% MACs, in_features=4096, out_features=4096, bias=False)
          (k_proj): Linear(16.78 M, 0.467% Params, 1.07 GMac, 0.482% MACs, in_features=4096, out_features=4096, bias=False)
          (v_proj): Linear(16.78 M, 0.467% Params, 1.07 GMac, 0.482% MACs, in_features=4096, out_features=4096, bias=False)
          (o_proj): Linear(16.78 M, 0.467% Params, 1.07 GMac, 0.482% MACs, in_features=4096, out_features=4096, bias=False)
          (rotary_emb): LlamaRotaryEmbedding(0, 0.000% Params, 0.0 Mac, 0.000% MACs, )
        )
        (mlp): LlamaMLP(
          135.27 M, 3.766% Params, 8.66 GMac, 3.888% MACs, 
          (gate_proj): Linear(45.09 M, 1.255% Params, 2.89 GMac, 1.296% MACs, in_features=4096, out_features=11008, bias=False)
          (down_proj): Linear(45.09 M, 1.255% Params, 2.89 GMac, 1.296% MACs, in_features=11008, out_features=4096, bias=False)
          (up_proj): Linear(45.09 M, 1.255% Params, 2.89 GMac, 1.296% MACs, in_features=4096, out_features=11008, bias=False)
          (act_fn): SiLUActivation(0, 0.000% Params, 704.51 KMac, 0.000% MACs, )
        )
        (input_layernorm): LlamaRMSNorm(4.1 k, 0.000% Params, 524.29 KMac, 0.000% MACs, )
        (post_attention_layernorm): LlamaRMSNorm(4.1 k, 0.000% Params, 524.29 KMac, 0.000% MACs, )
      )
    )
    (norm): LlamaRMSNorm(4.1 k, 0.000% Params, 524.29 KMac, 0.000% MACs, )
  )
  (lm_head): Linear(131.07 M, 3.649% Params, 8.39 GMac, 3.767% MACs, in_features=4096, out_features=32000, bias=False)
)
Computational complexity:       222.69 GMac
Number of parameters:           3592.2 M
GPU Memory Requirement: 7027.7265625 MiB

