…
Loading checkpoint shards:   0%|          | 0/2 [00:00<?, ?it/s]Loading checkpoint shards:  50%|█████     | 1/2 [00:01<00:01,  1.73s/it]Loading checkpoint shards: 100%|██████████| 2/2 [00:02<00:00,  1.07s/it]Loading checkpoint shards: 100%|██████████| 2/2 [00:02<00:00,  1.17s/it]
Warning: module Embedding is treated as a zero-op.
Warning: module LlamaRotaryEmbedding is treated as a zero-op.
Warning: module LlamaMLP is treated as a zero-op.
Warning: module LlamaDecoderLayer is treated as a zero-op.
Warning: module LlamaModel is treated as a zero-op.
Warning: module LlamaForCausalLM is treated as a zero-op.
Warning! No positional inputs found for a module, assuming batch size is 1.
LlamaForCausalLM(
  6607.34 M, 98.055% Params, 424.02 GMac, 99.741% MACs, 
  (model): LlamaModel(
    6476.27 M, 96.110% Params, 415.63 GMac, 97.768% MACs, 
    (embed_tokens): Embedding(0, 0.000% Params, 0.0 Mac, 0.000% MACs, 32000, 4096)
    (layers): ModuleList(
      (0-31): 32 x LlamaDecoderLayer(
        202.38 M, 3.003% Params, 12.99 GMac, 3.055% MACs, 
        (self_attn): LlamaAttention(
          67.11 M, 0.996% Params, 4.33 GMac, 1.018% MACs, 
          (q_proj): Linear(16.78 M, 0.249% Params, 1.07 GMac, 0.253% MACs, in_features=4096, out_features=4096, bias=False)
          (k_proj): Linear(16.78 M, 0.249% Params, 1.07 GMac, 0.253% MACs, in_features=4096, out_features=4096, bias=False)
          (v_proj): Linear(16.78 M, 0.249% Params, 1.07 GMac, 0.253% MACs, in_features=4096, out_features=4096, bias=False)
          (o_proj): Linear(16.78 M, 0.249% Params, 1.07 GMac, 0.253% MACs, in_features=4096, out_features=4096, bias=False)
          (rotary_emb): LlamaRotaryEmbedding(0, 0.000% Params, 0.0 Mac, 0.000% MACs, )
        )
        (mlp): LlamaMLP(
          135.27 M, 2.007% Params, 8.66 GMac, 2.037% MACs, 
          (gate_proj): Linear(45.09 M, 0.669% Params, 2.89 GMac, 0.679% MACs, in_features=4096, out_features=11008, bias=False)
          (down_proj): Linear(45.09 M, 0.669% Params, 2.89 GMac, 0.679% MACs, in_features=11008, out_features=4096, bias=False)
          (up_proj): Linear(45.09 M, 0.669% Params, 2.89 GMac, 0.679% MACs, in_features=4096, out_features=11008, bias=False)
          (act_fn): SiLUActivation(0, 0.000% Params, 704.51 KMac, 0.000% MACs, )
        )
        (input_layernorm): LlamaRMSNorm(4.1 k, 0.000% Params, 524.29 KMac, 0.000% MACs, )
        (post_attention_layernorm): LlamaRMSNorm(4.1 k, 0.000% Params, 524.29 KMac, 0.000% MACs, )
      )
    )
    (norm): LlamaRMSNorm(4.1 k, 0.000% Params, 524.29 KMac, 0.000% MACs, )
  )
  (lm_head): Linear(131.07 M, 1.945% Params, 8.39 GMac, 1.973% MACs, in_features=4096, out_features=32000, bias=False)
)
Computational complexity:       425.12 GMac
Number of parameters:           6738.42 M
GPU Memory Requirement: 12924.6484375 MiB

Warning: module Embedding is treated as a zero-op.
Warning: module LlamaRotaryEmbedding is treated as a zero-op.
Warning: module LlamaMLP is treated as a zero-op.
Warning: module LlamaDecoderLayer is treated as a zero-op.
Warning: module LlamaModel is treated as a zero-op.
Warning: module LlamaForCausalLM is treated as a zero-op.
Warning! No positional inputs found for a module, assuming batch size is 1.
LlamaForCausalLM(
  3976.47 M, 96.809% Params, 255.18 GMac, 99.745% MACs, 
  (model): LlamaModel(
    3845.39 M, 93.618% Params, 246.8 GMac, 96.466% MACs, 
    (embed_tokens): Embedding(0, 0.000% Params, 0.0 Mac, 0.000% MACs, 32000, 4096)
    (layers): ModuleList(
      (0-3): 4 x LlamaDecoderLayer(
        202.38 M, 4.927% Params, 12.99 GMac, 5.077% MACs, 
        (self_attn): LlamaAttention(
          67.11 M, 1.634% Params, 4.33 GMac, 1.692% MACs, 
          (q_proj): Linear(16.78 M, 0.408% Params, 1.07 GMac, 0.420% MACs, in_features=4096, out_features=4096, bias=False)
          (k_proj): Linear(16.78 M, 0.408% Params, 1.07 GMac, 0.420% MACs, in_features=4096, out_features=4096, bias=False)
          (v_proj): Linear(16.78 M, 0.408% Params, 1.07 GMac, 0.420% MACs, in_features=4096, out_features=4096, bias=False)
          (o_proj): Linear(16.78 M, 0.408% Params, 1.07 GMac, 0.420% MACs, in_features=4096, out_features=4096, bias=False)
          (rotary_emb): LlamaRotaryEmbedding(0, 0.000% Params, 0.0 Mac, 0.000% MACs, )
        )
        (mlp): LlamaMLP(
          135.27 M, 3.293% Params, 8.66 GMac, 3.384% MACs, 
          (gate_proj): Linear(45.09 M, 1.098% Params, 2.89 GMac, 1.128% MACs, in_features=4096, out_features=11008, bias=False)
          (down_proj): Linear(45.09 M, 1.098% Params, 2.89 GMac, 1.128% MACs, in_features=11008, out_features=4096, bias=False)
          (up_proj): Linear(45.09 M, 1.098% Params, 2.89 GMac, 1.128% MACs, in_features=4096, out_features=11008, bias=False)
          (act_fn): SiLUActivation(0, 0.000% Params, 704.51 KMac, 0.000% MACs, )
        )
        (input_layernorm): LlamaRMSNorm(4.1 k, 0.000% Params, 524.29 KMac, 0.000% MACs, )
        (post_attention_layernorm): LlamaRMSNorm(4.1 k, 0.000% Params, 524.29 KMac, 0.000% MACs, )
      )
      (4-29): 26 x LlamaDecoderLayer(
        101.2 M, 2.464% Params, 6.49 GMac, 2.539% MACs, 
        (self_attn): LlamaAttention(
          33.55 M, 0.817% Params, 2.16 GMac, 0.846% MACs, 
          (q_proj): Linear(8.39 M, 0.204% Params, 536.87 MMac, 0.210% MACs, in_features=4096, out_features=2048, bias=False)
          (k_proj): Linear(8.39 M, 0.204% Params, 536.87 MMac, 0.210% MACs, in_features=4096, out_features=2048, bias=False)
          (v_proj): Linear(8.39 M, 0.204% Params, 536.87 MMac, 0.210% MACs, in_features=4096, out_features=2048, bias=False)
          (o_proj): Linear(8.39 M, 0.204% Params, 536.87 MMac, 0.210% MACs, in_features=2048, out_features=4096, bias=False)
          (rotary_emb): LlamaRotaryEmbedding(0, 0.000% Params, 0.0 Mac, 0.000% MACs, )
        )
        (mlp): LlamaMLP(
          67.63 M, 1.647% Params, 4.33 GMac, 1.692% MACs, 
          (gate_proj): Linear(22.54 M, 0.549% Params, 1.44 GMac, 0.564% MACs, in_features=4096, out_features=5504, bias=False)
          (down_proj): Linear(22.54 M, 0.549% Params, 1.44 GMac, 0.564% MACs, in_features=5504, out_features=4096, bias=False)
          (up_proj): Linear(22.54 M, 0.549% Params, 1.44 GMac, 0.564% MACs, in_features=4096, out_features=5504, bias=False)
          (act_fn): SiLUActivation(0, 0.000% Params, 352.26 KMac, 0.000% MACs, )
        )
        (input_layernorm): LlamaRMSNorm(4.1 k, 0.000% Params, 524.29 KMac, 0.000% MACs, )
        (post_attention_layernorm): LlamaRMSNorm(4.1 k, 0.000% Params, 524.29 KMac, 0.000% MACs, )
      )
      (30-31): 2 x LlamaDecoderLayer(
        202.38 M, 4.927% Params, 12.99 GMac, 5.077% MACs, 
        (self_attn): LlamaAttention(
          67.11 M, 1.634% Params, 4.33 GMac, 1.692% MACs, 
          (q_proj): Linear(16.78 M, 0.408% Params, 1.07 GMac, 0.420% MACs, in_features=4096, out_features=4096, bias=False)
          (k_proj): Linear(16.78 M, 0.408% Params, 1.07 GMac, 0.420% MACs, in_features=4096, out_features=4096, bias=False)
          (v_proj): Linear(16.78 M, 0.408% Params, 1.07 GMac, 0.420% MACs, in_features=4096, out_features=4096, bias=False)
          (o_proj): Linear(16.78 M, 0.408% Params, 1.07 GMac, 0.420% MACs, in_features=4096, out_features=4096, bias=False)
          (rotary_emb): LlamaRotaryEmbedding(0, 0.000% Params, 0.0 Mac, 0.000% MACs, )
        )
        (mlp): LlamaMLP(
          135.27 M, 3.293% Params, 8.66 GMac, 3.384% MACs, 
          (gate_proj): Linear(45.09 M, 1.098% Params, 2.89 GMac, 1.128% MACs, in_features=4096, out_features=11008, bias=False)
          (down_proj): Linear(45.09 M, 1.098% Params, 2.89 GMac, 1.128% MACs, in_features=11008, out_features=4096, bias=False)
          (up_proj): Linear(45.09 M, 1.098% Params, 2.89 GMac, 1.128% MACs, in_features=4096, out_features=11008, bias=False)
          (act_fn): SiLUActivation(0, 0.000% Params, 704.51 KMac, 0.000% MACs, )
        )
        (input_layernorm): LlamaRMSNorm(4.1 k, 0.000% Params, 524.29 KMac, 0.000% MACs, )
        (post_attention_layernorm): LlamaRMSNorm(4.1 k, 0.000% Params, 524.29 KMac, 0.000% MACs, )
      )
    )
    (norm): LlamaRMSNorm(4.1 k, 0.000% Params, 524.29 KMac, 0.000% MACs, )
  )
  (lm_head): Linear(131.07 M, 3.191% Params, 8.39 GMac, 3.279% MACs, in_features=4096, out_features=32000, bias=False)
)
Computational complexity:       255.84 GMac
Number of parameters:           4107.54 M
GPU Memory Requirement: 7984.6484375 MiB

