…
Loading checkpoint shards:   0%|          | 0/2 [00:00<?, ?it/s]Loading checkpoint shards:  50%|█████     | 1/2 [00:01<00:01,  1.73s/it]Loading checkpoint shards: 100%|██████████| 2/2 [00:02<00:00,  1.07s/it]Loading checkpoint shards: 100%|██████████| 2/2 [00:02<00:00,  1.17s/it]
Warning: module Embedding is treated as a zero-op.
Warning: module LlamaRotaryEmbedding is treated as a zero-op.
Warning: module LlamaMLP is treated as a zero-op.
Warning: module LlamaDecoderLayer is treated as a zero-op.
Warning: module LlamaModel is treated as a zero-op.
Warning: module LlamaForCausalLM is treated as a zero-op.
Warning! No positional inputs found for a module, assuming batch size is 1.
LlamaForCausalLM(
  6607.34 M, 98.055% Params, 424.02 GMac, 99.741% MACs, 
  (model): LlamaModel(
    6476.27 M, 96.110% Params, 415.63 GMac, 97.768% MACs, 
    (embed_tokens): Embedding(0, 0.000% Params, 0.0 Mac, 0.000% MACs, 32000, 4096)
    (layers): ModuleList(
      (0-31): 32 x LlamaDecoderLayer(
        202.38 M, 3.003% Params, 12.99 GMac, 3.055% MACs, 
        (self_attn): LlamaAttention(
          67.11 M, 0.996% Params, 4.33 GMac, 1.018% MACs, 
          (q_proj): Linear(16.78 M, 0.249% Params, 1.07 GMac, 0.253% MACs, in_features=4096, out_features=4096, bias=False)
          (k_proj): Linear(16.78 M, 0.249% Params, 1.07 GMac, 0.253% MACs, in_features=4096, out_features=4096, bias=False)
          (v_proj): Linear(16.78 M, 0.249% Params, 1.07 GMac, 0.253% MACs, in_features=4096, out_features=4096, bias=False)
          (o_proj): Linear(16.78 M, 0.249% Params, 1.07 GMac, 0.253% MACs, in_features=4096, out_features=4096, bias=False)
          (rotary_emb): LlamaRotaryEmbedding(0, 0.000% Params, 0.0 Mac, 0.000% MACs, )
        )
        (mlp): LlamaMLP(
          135.27 M, 2.007% Params, 8.66 GMac, 2.037% MACs, 
          (gate_proj): Linear(45.09 M, 0.669% Params, 2.89 GMac, 0.679% MACs, in_features=4096, out_features=11008, bias=False)
          (down_proj): Linear(45.09 M, 0.669% Params, 2.89 GMac, 0.679% MACs, in_features=11008, out_features=4096, bias=False)
          (up_proj): Linear(45.09 M, 0.669% Params, 2.89 GMac, 0.679% MACs, in_features=4096, out_features=11008, bias=False)
          (act_fn): SiLUActivation(0, 0.000% Params, 704.51 KMac, 0.000% MACs, )
        )
        (input_layernorm): LlamaRMSNorm(4.1 k, 0.000% Params, 524.29 KMac, 0.000% MACs, )
        (post_attention_layernorm): LlamaRMSNorm(4.1 k, 0.000% Params, 524.29 KMac, 0.000% MACs, )
      )
    )
    (norm): LlamaRMSNorm(4.1 k, 0.000% Params, 524.29 KMac, 0.000% MACs, )
  )
  (lm_head): Linear(131.07 M, 1.945% Params, 8.39 GMac, 1.973% MACs, in_features=4096, out_features=32000, bias=False)
)
Computational complexity:       425.12 GMac
Number of parameters:           6738.42 M
GPU Memory Requirement: 12924.6484375 MiB

Warning: module Embedding is treated as a zero-op.
Warning: module LlamaRotaryEmbedding is treated as a zero-op.
Warning: module LlamaMLP is treated as a zero-op.
Warning: module LlamaDecoderLayer is treated as a zero-op.
Warning: module LlamaModel is treated as a zero-op.
Warning: module LlamaForCausalLM is treated as a zero-op.
Warning! No positional inputs found for a module, assuming batch size is 1.
LlamaForCausalLM(
  5291.91 M, 97.583% Params, 339.6 GMac, 99.742% MACs, 
  (model): LlamaModel(
    5160.83 M, 95.166% Params, 331.21 GMac, 97.279% MACs, 
    (embed_tokens): Embedding(0, 0.000% Params, 0.0 Mac, 0.000% MACs, 32000, 4096)
    (layers): ModuleList(
      (0-3): 4 x LlamaDecoderLayer(
        202.38 M, 3.732% Params, 12.99 GMac, 3.815% MACs, 
        (self_attn): LlamaAttention(
          67.11 M, 1.237% Params, 4.33 GMac, 1.272% MACs, 
          (q_proj): Linear(16.78 M, 0.309% Params, 1.07 GMac, 0.315% MACs, in_features=4096, out_features=4096, bias=False)
          (k_proj): Linear(16.78 M, 0.309% Params, 1.07 GMac, 0.315% MACs, in_features=4096, out_features=4096, bias=False)
          (v_proj): Linear(16.78 M, 0.309% Params, 1.07 GMac, 0.315% MACs, in_features=4096, out_features=4096, bias=False)
          (o_proj): Linear(16.78 M, 0.309% Params, 1.07 GMac, 0.315% MACs, in_features=4096, out_features=4096, bias=False)
          (rotary_emb): LlamaRotaryEmbedding(0, 0.000% Params, 0.0 Mac, 0.000% MACs, )
        )
        (mlp): LlamaMLP(
          135.27 M, 2.494% Params, 8.66 GMac, 2.543% MACs, 
          (gate_proj): Linear(45.09 M, 0.831% Params, 2.89 GMac, 0.848% MACs, in_features=4096, out_features=11008, bias=False)
          (down_proj): Linear(45.09 M, 0.831% Params, 2.89 GMac, 0.848% MACs, in_features=11008, out_features=4096, bias=False)
          (up_proj): Linear(45.09 M, 0.831% Params, 2.89 GMac, 0.848% MACs, in_features=4096, out_features=11008, bias=False)
          (act_fn): SiLUActivation(0, 0.000% Params, 704.51 KMac, 0.000% MACs, )
        )
        (input_layernorm): LlamaRMSNorm(4.1 k, 0.000% Params, 524.29 KMac, 0.000% MACs, )
        (post_attention_layernorm): LlamaRMSNorm(4.1 k, 0.000% Params, 524.29 KMac, 0.000% MACs, )
      )
      (4-29): 26 x LlamaDecoderLayer(
        151.79 M, 2.799% Params, 9.74 GMac, 2.861% MACs, 
        (self_attn): LlamaAttention(
          50.33 M, 0.928% Params, 3.25 GMac, 0.954% MACs, 
          (q_proj): Linear(12.58 M, 0.232% Params, 805.31 MMac, 0.237% MACs, in_features=4096, out_features=3072, bias=False)
          (k_proj): Linear(12.58 M, 0.232% Params, 805.31 MMac, 0.237% MACs, in_features=4096, out_features=3072, bias=False)
          (v_proj): Linear(12.58 M, 0.232% Params, 805.31 MMac, 0.237% MACs, in_features=4096, out_features=3072, bias=False)
          (o_proj): Linear(12.58 M, 0.232% Params, 805.31 MMac, 0.237% MACs, in_features=3072, out_features=4096, bias=False)
          (rotary_emb): LlamaRotaryEmbedding(0, 0.000% Params, 0.0 Mac, 0.000% MACs, )
        )
        (mlp): LlamaMLP(
          101.45 M, 1.871% Params, 6.49 GMac, 1.907% MACs, 
          (gate_proj): Linear(33.82 M, 0.624% Params, 2.16 GMac, 0.636% MACs, in_features=4096, out_features=8256, bias=False)
          (down_proj): Linear(33.82 M, 0.624% Params, 2.16 GMac, 0.636% MACs, in_features=8256, out_features=4096, bias=False)
          (up_proj): Linear(33.82 M, 0.624% Params, 2.16 GMac, 0.636% MACs, in_features=4096, out_features=8256, bias=False)
          (act_fn): SiLUActivation(0, 0.000% Params, 528.38 KMac, 0.000% MACs, )
        )
        (input_layernorm): LlamaRMSNorm(4.1 k, 0.000% Params, 524.29 KMac, 0.000% MACs, )
        (post_attention_layernorm): LlamaRMSNorm(4.1 k, 0.000% Params, 524.29 KMac, 0.000% MACs, )
      )
      (30-31): 2 x LlamaDecoderLayer(
        202.38 M, 3.732% Params, 12.99 GMac, 3.815% MACs, 
        (self_attn): LlamaAttention(
          67.11 M, 1.237% Params, 4.33 GMac, 1.272% MACs, 
          (q_proj): Linear(16.78 M, 0.309% Params, 1.07 GMac, 0.315% MACs, in_features=4096, out_features=4096, bias=False)
          (k_proj): Linear(16.78 M, 0.309% Params, 1.07 GMac, 0.315% MACs, in_features=4096, out_features=4096, bias=False)
          (v_proj): Linear(16.78 M, 0.309% Params, 1.07 GMac, 0.315% MACs, in_features=4096, out_features=4096, bias=False)
          (o_proj): Linear(16.78 M, 0.309% Params, 1.07 GMac, 0.315% MACs, in_features=4096, out_features=4096, bias=False)
          (rotary_emb): LlamaRotaryEmbedding(0, 0.000% Params, 0.0 Mac, 0.000% MACs, )
        )
        (mlp): LlamaMLP(
          135.27 M, 2.494% Params, 8.66 GMac, 2.543% MACs, 
          (gate_proj): Linear(45.09 M, 0.831% Params, 2.89 GMac, 0.848% MACs, in_features=4096, out_features=11008, bias=False)
          (down_proj): Linear(45.09 M, 0.831% Params, 2.89 GMac, 0.848% MACs, in_features=11008, out_features=4096, bias=False)
          (up_proj): Linear(45.09 M, 0.831% Params, 2.89 GMac, 0.848% MACs, in_features=4096, out_features=11008, bias=False)
          (act_fn): SiLUActivation(0, 0.000% Params, 704.51 KMac, 0.000% MACs, )
        )
        (input_layernorm): LlamaRMSNorm(4.1 k, 0.000% Params, 524.29 KMac, 0.000% MACs, )
        (post_attention_layernorm): LlamaRMSNorm(4.1 k, 0.000% Params, 524.29 KMac, 0.000% MACs, )
      )
    )
    (norm): LlamaRMSNorm(4.1 k, 0.000% Params, 524.29 KMac, 0.000% MACs, )
  )
  (lm_head): Linear(131.07 M, 2.417% Params, 8.39 GMac, 2.464% MACs, in_features=4096, out_features=32000, bias=False)
)
Computational complexity:       340.48 GMac
Number of parameters:           5422.98 M
GPU Memory Requirement: 10415.6484375 MiB

