…
Loading checkpoint shards:   0%|          | 0/2 [00:00<?, ?it/s]Loading checkpoint shards:  50%|█████     | 1/2 [00:01<00:01,  1.73s/it]Loading checkpoint shards: 100%|██████████| 2/2 [00:02<00:00,  1.08s/it]Loading checkpoint shards: 100%|██████████| 2/2 [00:02<00:00,  1.18s/it]
Warning: module Embedding is treated as a zero-op.
Warning: module LlamaRotaryEmbedding is treated as a zero-op.
Warning: module LlamaMLP is treated as a zero-op.
Warning: module LlamaDecoderLayer is treated as a zero-op.
Warning: module LlamaModel is treated as a zero-op.
Warning: module LlamaForCausalLM is treated as a zero-op.
Warning! No positional inputs found for a module, assuming batch size is 1.
LlamaForCausalLM(
  6607.34 M, 98.055% Params, 424.02 GMac, 99.741% MACs, 
  (model): LlamaModel(
    6476.27 M, 96.110% Params, 415.63 GMac, 97.768% MACs, 
    (embed_tokens): Embedding(0, 0.000% Params, 0.0 Mac, 0.000% MACs, 32000, 4096)
    (layers): ModuleList(
      (0-31): 32 x LlamaDecoderLayer(
        202.38 M, 3.003% Params, 12.99 GMac, 3.055% MACs, 
        (self_attn): LlamaAttention(
          67.11 M, 0.996% Params, 4.33 GMac, 1.018% MACs, 
          (q_proj): Linear(16.78 M, 0.249% Params, 1.07 GMac, 0.253% MACs, in_features=4096, out_features=4096, bias=False)
          (k_proj): Linear(16.78 M, 0.249% Params, 1.07 GMac, 0.253% MACs, in_features=4096, out_features=4096, bias=False)
          (v_proj): Linear(16.78 M, 0.249% Params, 1.07 GMac, 0.253% MACs, in_features=4096, out_features=4096, bias=False)
          (o_proj): Linear(16.78 M, 0.249% Params, 1.07 GMac, 0.253% MACs, in_features=4096, out_features=4096, bias=False)
          (rotary_emb): LlamaRotaryEmbedding(0, 0.000% Params, 0.0 Mac, 0.000% MACs, )
        )
        (mlp): LlamaMLP(
          135.27 M, 2.007% Params, 8.66 GMac, 2.037% MACs, 
          (gate_proj): Linear(45.09 M, 0.669% Params, 2.89 GMac, 0.679% MACs, in_features=4096, out_features=11008, bias=False)
          (down_proj): Linear(45.09 M, 0.669% Params, 2.89 GMac, 0.679% MACs, in_features=11008, out_features=4096, bias=False)
          (up_proj): Linear(45.09 M, 0.669% Params, 2.89 GMac, 0.679% MACs, in_features=4096, out_features=11008, bias=False)
          (act_fn): SiLUActivation(0, 0.000% Params, 704.51 KMac, 0.000% MACs, )
        )
        (input_layernorm): LlamaRMSNorm(4.1 k, 0.000% Params, 524.29 KMac, 0.000% MACs, )
        (post_attention_layernorm): LlamaRMSNorm(4.1 k, 0.000% Params, 524.29 KMac, 0.000% MACs, )
      )
    )
    (norm): LlamaRMSNorm(4.1 k, 0.000% Params, 524.29 KMac, 0.000% MACs, )
  )
  (lm_head): Linear(131.07 M, 1.945% Params, 8.39 GMac, 1.973% MACs, in_features=4096, out_features=32000, bias=False)
)
Computational complexity:       425.12 GMac
Number of parameters:           6738.42 M
GPU Memory Requirement: 12924.6484375 MiB

Warning: module Embedding is treated as a zero-op.
Warning: module LlamaRotaryEmbedding is treated as a zero-op.
Warning: module LlamaMLP is treated as a zero-op.
Warning: module LlamaDecoderLayer is treated as a zero-op.
Warning: module LlamaModel is treated as a zero-op.
Warning: module LlamaForCausalLM is treated as a zero-op.
Warning! No positional inputs found for a module, assuming batch size is 1.
LlamaForCausalLM(
  4546.01 M, 97.198% Params, 291.75 GMac, 99.739% MACs, 
  (model): LlamaModel(
    4414.94 M, 94.395% Params, 283.36 GMac, 96.871% MACs, 
    (embed_tokens): Embedding(0, 0.000% Params, 0.0 Mac, 0.000% MACs, 32000, 4096)
    (layers): ModuleList(
      (0-3): 4 x LlamaDecoderLayer(
        202.38 M, 4.327% Params, 12.99 GMac, 4.440% MACs, 
        (self_attn): LlamaAttention(
          67.11 M, 1.435% Params, 4.33 GMac, 1.480% MACs, 
          (q_proj): Linear(16.78 M, 0.359% Params, 1.07 GMac, 0.367% MACs, in_features=4096, out_features=4096, bias=False)
          (k_proj): Linear(16.78 M, 0.359% Params, 1.07 GMac, 0.367% MACs, in_features=4096, out_features=4096, bias=False)
          (v_proj): Linear(16.78 M, 0.359% Params, 1.07 GMac, 0.367% MACs, in_features=4096, out_features=4096, bias=False)
          (o_proj): Linear(16.78 M, 0.359% Params, 1.07 GMac, 0.367% MACs, in_features=4096, out_features=4096, bias=False)
          (rotary_emb): LlamaRotaryEmbedding(0, 0.000% Params, 0.0 Mac, 0.000% MACs, )
        )
        (mlp): LlamaMLP(
          135.27 M, 2.892% Params, 8.66 GMac, 2.960% MACs, 
          (gate_proj): Linear(45.09 M, 0.964% Params, 2.89 GMac, 0.987% MACs, in_features=4096, out_features=11008, bias=False)
          (down_proj): Linear(45.09 M, 0.964% Params, 2.89 GMac, 0.987% MACs, in_features=11008, out_features=4096, bias=False)
          (up_proj): Linear(45.09 M, 0.964% Params, 2.89 GMac, 0.987% MACs, in_features=4096, out_features=11008, bias=False)
          (act_fn): SiLUActivation(0, 0.000% Params, 704.51 KMac, 0.000% MACs, )
        )
        (input_layernorm): LlamaRMSNorm(4.1 k, 0.000% Params, 524.29 KMac, 0.000% MACs, )
        (post_attention_layernorm): LlamaRMSNorm(4.1 k, 0.000% Params, 524.29 KMac, 0.000% MACs, )
      )
      (4-29): 26 x LlamaDecoderLayer(
        123.1 M, 2.632% Params, 7.9 GMac, 2.701% MACs, 
        (self_attn): LlamaAttention(
          41.94 M, 0.897% Params, 2.71 GMac, 0.925% MACs, 
          (q_proj): Linear(10.49 M, 0.224% Params, 671.09 MMac, 0.229% MACs, in_features=4096, out_features=2560, bias=False)
          (k_proj): Linear(10.49 M, 0.224% Params, 671.09 MMac, 0.229% MACs, in_features=4096, out_features=2560, bias=False)
          (v_proj): Linear(10.49 M, 0.224% Params, 671.09 MMac, 0.229% MACs, in_features=4096, out_features=2560, bias=False)
          (o_proj): Linear(10.49 M, 0.224% Params, 671.09 MMac, 0.229% MACs, in_features=2560, out_features=4096, bias=False)
          (rotary_emb): LlamaRotaryEmbedding(0, 0.000% Params, 0.0 Mac, 0.000% MACs, )
        )
        (mlp): LlamaMLP(
          81.15 M, 1.735% Params, 5.19 GMac, 1.776% MACs, 
          (gate_proj): Linear(27.05 M, 0.578% Params, 1.73 GMac, 0.592% MACs, in_features=4096, out_features=6604, bias=False)
          (down_proj): Linear(27.05 M, 0.578% Params, 1.73 GMac, 0.592% MACs, in_features=6604, out_features=4096, bias=False)
          (up_proj): Linear(27.05 M, 0.578% Params, 1.73 GMac, 0.592% MACs, in_features=4096, out_features=6604, bias=False)
          (act_fn): SiLUActivation(0, 0.000% Params, 422.66 KMac, 0.000% MACs, )
        )
        (input_layernorm): LlamaRMSNorm(4.1 k, 0.000% Params, 524.29 KMac, 0.000% MACs, )
        (post_attention_layernorm): LlamaRMSNorm(4.1 k, 0.000% Params, 524.29 KMac, 0.000% MACs, )
      )
      (30-31): 2 x LlamaDecoderLayer(
        202.38 M, 4.327% Params, 12.99 GMac, 4.440% MACs, 
        (self_attn): LlamaAttention(
          67.11 M, 1.435% Params, 4.33 GMac, 1.480% MACs, 
          (q_proj): Linear(16.78 M, 0.359% Params, 1.07 GMac, 0.367% MACs, in_features=4096, out_features=4096, bias=False)
          (k_proj): Linear(16.78 M, 0.359% Params, 1.07 GMac, 0.367% MACs, in_features=4096, out_features=4096, bias=False)
          (v_proj): Linear(16.78 M, 0.359% Params, 1.07 GMac, 0.367% MACs, in_features=4096, out_features=4096, bias=False)
          (o_proj): Linear(16.78 M, 0.359% Params, 1.07 GMac, 0.367% MACs, in_features=4096, out_features=4096, bias=False)
          (rotary_emb): LlamaRotaryEmbedding(0, 0.000% Params, 0.0 Mac, 0.000% MACs, )
        )
        (mlp): LlamaMLP(
          135.27 M, 2.892% Params, 8.66 GMac, 2.960% MACs, 
          (gate_proj): Linear(45.09 M, 0.964% Params, 2.89 GMac, 0.987% MACs, in_features=4096, out_features=11008, bias=False)
          (down_proj): Linear(45.09 M, 0.964% Params, 2.89 GMac, 0.987% MACs, in_features=11008, out_features=4096, bias=False)
          (up_proj): Linear(45.09 M, 0.964% Params, 2.89 GMac, 0.987% MACs, in_features=4096, out_features=11008, bias=False)
          (act_fn): SiLUActivation(0, 0.000% Params, 704.51 KMac, 0.000% MACs, )
        )
        (input_layernorm): LlamaRMSNorm(4.1 k, 0.000% Params, 524.29 KMac, 0.000% MACs, )
        (post_attention_layernorm): LlamaRMSNorm(4.1 k, 0.000% Params, 524.29 KMac, 0.000% MACs, )
      )
    )
    (norm): LlamaRMSNorm(4.1 k, 0.000% Params, 524.29 KMac, 0.000% MACs, )
  )
  (lm_head): Linear(131.07 M, 2.802% Params, 8.39 GMac, 2.868% MACs, in_features=4096, out_features=32000, bias=False)
)
Computational complexity:       292.51 GMac
Number of parameters:           4677.08 M
GPU Memory Requirement: 9024.6484375 MiB

